…
Installing collected packages: tzdata, threadpoolctl, scipy, python-dateutil, pyparsing, pyerfa, kiwisolver, joblib, fonttools, cycler, contourpy, astropy-iers-data, scikit-learn, pandas, matplotlib, astropy

Successfully installed astropy-6.0.1 astropy-iers-data-0.2025.11.10.0.38.31 contourpy-1.3.2 cycler-0.12.1 fonttools-4.60.1 joblib-1.5.2 kiwisolver-1.4.9 matplotlib-3.8.4 pandas-2.3.3 pyerfa-2.0.1.5 pyparsing-3.2.5 python-dateutil-2.9.0.post0 scikit-learn-1.7.2 scipy-1.15.3 threadpoolctl-3.6.0 tzdata-2025.2
[run.sh] running ml_4.py (tag=ml_4)
Device: cuda
finish loading data
[Stratify] 3x3 bins OK (min=19, max=24347)
Split sizes -> train=61302, val=10818, test=12728
CNN1DRegressor(
  (features): Sequential(
    (0): Conv1d(1, 180, kernel_size=(33,), stride=(1,), padding=(16,), bias=False)
    (1): BatchNorm1d(180, eps=1e-05, momentum=0.1, affine=True, track_running_stats=True)
    (2): ReLU(inplace=True)
    (3): MaxPool1d(kernel_size=2, stride=2, padding=0, dilation=1, ceil_mode=False)
    (4): Dropout(p=0.2, inplace=False)
    (5): Conv1d(180, 160, kernel_size=(25,), stride=(1,), padding=(12,), bias=False)
    (6): BatchNorm1d(160, eps=1e-05, momentum=0.1, affine=True, track_running_stats=True)
    (7): ReLU(inplace=True)
    (8): MaxPool1d(kernel_size=2, stride=2, padding=0, dilation=1, ceil_mode=False)
    (9): Dropout(p=0.2, inplace=False)
    (10): Conv1d(160, 128, kernel_size=(33,), stride=(1,), padding=(16,), bias=False)
    (11): BatchNorm1d(128, eps=1e-05, momentum=0.1, affine=True, track_running_stats=True)
    (12): ReLU(inplace=True)
    (13): MaxPool1d(kernel_size=2, stride=2, padding=0, dilation=1, ceil_mode=False)
    (14): Dropout(p=0.2, inplace=False)
    (15): Conv1d(128, 96, kernel_size=(7,), stride=(1,), padding=(3,), bias=False)
    (16): BatchNorm1d(96, eps=1e-05, momentum=0.1, affine=True, track_running_stats=True)
    (17): ReLU(inplace=True)
    (18): Dropout(p=0.2, inplace=False)
    (19): Conv1d(96, 64, kernel_size=(20,), stride=(1,), padding=(10,), bias=False)
    (20): BatchNorm1d(64, eps=1e-05, momentum=0.1, affine=True, track_running_stats=True)
    (21): ReLU(inplace=True)
    (22): Dropout(p=0.2, inplace=False)
    (23): Conv1d(64, 32, kernel_size=(3,), stride=(1,), padding=(1,), bias=False)
    (24): BatchNorm1d(32, eps=1e-05, momentum=0.1, affine=True, track_running_stats=True)
    (25): ReLU(inplace=True)
    (26): Dropout(p=0.2, inplace=False)
    (27): AdaptiveAvgPool1d(output_size=1)
  )
  (head): Sequential(
    (0): Flatten(start_dim=1, end_dim=-1)
    (1): Linear(in_features=32, out_features=128, bias=True)
    (2): ReLU(inplace=True)
    (3): Dropout(p=0.1, inplace=False)
    (4): Linear(in_features=128, out_features=2, bias=True)
  )
)
Baseline RMSE (val) — RHI 0.1738, fcnm 0.1737
Epoch 001 | train 1.4204 (RMSE RHI=0.1690, fcnm=0.1693) | val 1.4028 (RMSE RHI=0.1683, fcnm=0.1679) | lr=0.001
Epoch 002 | train 1.3544 (RMSE RHI=0.1653, fcnm=0.1666) | val 1.3681 (RMSE RHI=0.1662, fcnm=0.1658) | lr=0.001
Epoch 003 | train 1.3988 (RMSE RHI=0.1690, fcnm=0.1686) | val 1.4000 (RMSE RHI=0.1683, fcnm=0.1674) | lr=0.001
…
